{"modelTopology": {"keras_version": "2.1.6-tf", "backend": "tensorflow", "model_config": {"class_name": "Model", "config": {"name": "model_4", "layers": [{"name": "input_6", "class_name": "InputLayer", "config": {"batch_input_shape": [null, 224, 224, 3], "dtype": "float32", "sparse": false, "name": "input_6"}, "inbound_nodes": []}, {"name": "conv2d_143", "class_name": "Conv2D", "config": {"name": "conv2d_143", "trainable": true, "dtype": "float32", "filters": 64, "kernel_size": [9, 9], "strides": [2, 2], "padding": "same", "data_format": "channels_last", "dilation_rate": [1, 1], "activation": "relu", "use_bias": true, "kernel_initializer": {"class_name": "VarianceScaling", "config": {"scale": 1.0, "mode": "fan_avg", "distribution": "uniform", "seed": null, "dtype": "float32"}}, "bias_initializer": {"class_name": "Zeros", "config": {"dtype": "float32"}}, "kernel_regularizer": {"class_name": "L1L2", "config": {"l1": 0.0, "l2": 0.0}}, "bias_regularizer": null, "activity_regularizer": null, "kernel_constraint": null, "bias_constraint": null}, "inbound_nodes": [[["input_6", 0, 0, {}]]]}, {"name": "max_pooling2d_30", "class_name": "MaxPooling2D", "config": {"name": "max_pooling2d_30", "trainable": true, "dtype": "float32", "pool_size": [2, 2], "padding": "valid", "strides": [2, 2], "data_format": "channels_last"}, "inbound_nodes": [[["conv2d_143", 0, 0, {}]]]}, {"name": "batch_normalization_126", "class_name": "BatchNormalization", "config": {"name": "batch_normalization_126", "trainable": true, "dtype": "float32", "axis": [3], "momentum": 0.99, "epsilon": 0.001, "center": true, "scale": true, "beta_initializer": {"class_name": "Zeros", "config": {"dtype": "float32"}}, "gamma_initializer": {"class_name": "Ones", "config": {"dtype": "float32"}}, "moving_mean_initializer": {"class_name": "Zeros", "config": {"dtype": "float32"}}, "moving_variance_initializer": {"class_name": "Ones", "config": {"dtype": "float32"}}, "beta_regularizer": null, "gamma_regularizer": null, "beta_constraint": null, "gamma_constraint": null}, "inbound_nodes": [[["max_pooling2d_30", 0, 0, {}]]]}, {"name": "conv2d_144", "class_name": "Conv2D", "config": {"name": "conv2d_144", "trainable": true, "dtype": "float32", "filters": 64, "kernel_size": [3, 3], "strides": [1, 1], "padding": "same", "data_format": "channels_last", "dilation_rate": [1, 1], "activation": "relu", "use_bias": true, "kernel_initializer": {"class_name": "VarianceScaling", "config": {"scale": 1.0, "mode": "fan_avg", "distribution": "uniform", "seed": null, "dtype": "float32"}}, "bias_initializer": {"class_name": "Zeros", "config": {"dtype": "float32"}}, "kernel_regularizer": {"class_name": "L1L2", "config": {"l1": 0.0, "l2": 0.0}}, "bias_regularizer": null, "activity_regularizer": null, "kernel_constraint": null, "bias_constraint": null}, "inbound_nodes": [[["batch_normalization_126", 0, 0, {}]]]}, {"name": "batch_normalization_127", "class_name": "BatchNormalization", "config": {"name": "batch_normalization_127", "trainable": true, "dtype": "float32", "axis": [3], "momentum": 0.99, "epsilon": 0.001, "center": true, "scale": true, "beta_initializer": {"class_name": "Zeros", "config": {"dtype": "float32"}}, "gamma_initializer": {"class_name": "Ones", "config": {"dtype": "float32"}}, "moving_mean_initializer": {"class_name": "Zeros", "config": {"dtype": "float32"}}, "moving_variance_initializer": {"class_name": "Ones", "config": {"dtype": "float32"}}, "beta_regularizer": null, "gamma_regularizer": null, "beta_constraint": null, "gamma_constraint": null}, "inbound_nodes": [[["conv2d_144", 0, 0, {}]]]}, {"name": "conv2d_145", "class_name": "Conv2D", "config": {"name": "conv2d_145", "trainable": true, "dtype": "float32", "filters": 64, "kernel_size": [3, 3], "strides": [1, 1], "padding": "same", "data_format": "channels_last", "dilation_rate": [1, 1], "activation": "relu", "use_bias": true, "kernel_initializer": {"class_name": "VarianceScaling", "config": {"scale": 1.0, "mode": "fan_avg", "distribution": "uniform", "seed": null, "dtype": "float32"}}, "bias_initializer": {"class_name": "Zeros", "config": {"dtype": "float32"}}, "kernel_regularizer": {"class_name": "L1L2", "config": {"l1": 0.0, "l2": 0.0}}, "bias_regularizer": null, "activity_regularizer": null, "kernel_constraint": null, "bias_constraint": null}, "inbound_nodes": [[["batch_normalization_127", 0, 0, {}]]]}, {"name": "max_pooling2d_31", "class_name": "MaxPooling2D", "config": {"name": "max_pooling2d_31", "trainable": true, "dtype": "float32", "pool_size": [2, 2], "padding": "valid", "strides": [2, 2], "data_format": "channels_last"}, "inbound_nodes": [[["conv2d_145", 0, 0, {}]]]}, {"name": "batch_normalization_128", "class_name": "BatchNormalization", "config": {"name": "batch_normalization_128", "trainable": true, "dtype": "float32", "axis": [3], "momentum": 0.99, "epsilon": 0.001, "center": true, "scale": true, "beta_initializer": {"class_name": "Zeros", "config": {"dtype": "float32"}}, "gamma_initializer": {"class_name": "Ones", "config": {"dtype": "float32"}}, "moving_mean_initializer": {"class_name": "Zeros", "config": {"dtype": "float32"}}, "moving_variance_initializer": {"class_name": "Ones", "config": {"dtype": "float32"}}, "beta_regularizer": null, "gamma_regularizer": null, "beta_constraint": null, "gamma_constraint": null}, "inbound_nodes": [[["max_pooling2d_31", 0, 0, {}]]]}, {"name": "conv2d_146", "class_name": "Conv2D", "config": {"name": "conv2d_146", "trainable": true, "dtype": "float32", "filters": 128, "kernel_size": [1, 1], "strides": [1, 1], "padding": "same", "data_format": "channels_last", "dilation_rate": [1, 1], "activation": "relu", "use_bias": true, "kernel_initializer": {"class_name": "VarianceScaling", "config": {"scale": 1.0, "mode": "fan_avg", "distribution": "uniform", "seed": null, "dtype": "float32"}}, "bias_initializer": {"class_name": "Zeros", "config": {"dtype": "float32"}}, "kernel_regularizer": {"class_name": "L1L2", "config": {"l1": 0.0, "l2": 0.0}}, "bias_regularizer": null, "activity_regularizer": null, "kernel_constraint": null, "bias_constraint": null}, "inbound_nodes": [[["batch_normalization_128", 0, 0, {}]]]}, {"name": "batch_normalization_129", "class_name": "BatchNormalization", "config": {"name": "batch_normalization_129", "trainable": true, "dtype": "float32", "axis": [3], "momentum": 0.99, "epsilon": 0.001, "center": true, "scale": true, "beta_initializer": {"class_name": "Zeros", "config": {"dtype": "float32"}}, "gamma_initializer": {"class_name": "Ones", "config": {"dtype": "float32"}}, "moving_mean_initializer": {"class_name": "Zeros", "config": {"dtype": "float32"}}, "moving_variance_initializer": {"class_name": "Ones", "config": {"dtype": "float32"}}, "beta_regularizer": null, "gamma_regularizer": null, "beta_constraint": null, "gamma_constraint": null}, "inbound_nodes": [[["conv2d_146", 0, 0, {}]]]}, {"name": "conv2d_147", "class_name": "Conv2D", "config": {"name": "conv2d_147", "trainable": true, "dtype": "float32", "filters": 64, "kernel_size": [1, 1], "strides": [1, 1], "padding": "same", "data_format": "channels_last", "dilation_rate": [1, 1], "activation": "relu", "use_bias": true, "kernel_initializer": {"class_name": "VarianceScaling", "config": {"scale": 1.0, "mode": "fan_avg", "distribution": "uniform", "seed": null, "dtype": "float32"}}, "bias_initializer": {"class_name": "Zeros", "config": {"dtype": "float32"}}, "kernel_regularizer": {"class_name": "L1L2", "config": {"l1": 0.0, "l2": 0.0}}, "bias_regularizer": null, "activity_regularizer": null, "kernel_constraint": null, "bias_constraint": null}, "inbound_nodes": [[["batch_normalization_129", 0, 0, {}]]]}, {"name": "batch_normalization_130", "class_name": "BatchNormalization", "config": {"name": "batch_normalization_130", "trainable": true, "dtype": "float32", "axis": [3], "momentum": 0.99, "epsilon": 0.001, "center": true, "scale": true, "beta_initializer": {"class_name": "Zeros", "config": {"dtype": "float32"}}, "gamma_initializer": {"class_name": "Ones", "config": {"dtype": "float32"}}, "moving_mean_initializer": {"class_name": "Zeros", "config": {"dtype": "float32"}}, "moving_variance_initializer": {"class_name": "Ones", "config": {"dtype": "float32"}}, "beta_regularizer": null, "gamma_regularizer": null, "beta_constraint": null, "gamma_constraint": null}, "inbound_nodes": [[["conv2d_147", 0, 0, {}]]]}, {"name": "conv2d_148", "class_name": "Conv2D", "config": {"name": "conv2d_148", "trainable": true, "dtype": "float32", "filters": 64, "kernel_size": [3, 3], "strides": [1, 1], "padding": "same", "data_format": "channels_last", "dilation_rate": [1, 1], "activation": "relu", "use_bias": true, "kernel_initializer": {"class_name": "VarianceScaling", "config": {"scale": 1.0, "mode": "fan_avg", "distribution": "uniform", "seed": null, "dtype": "float32"}}, "bias_initializer": {"class_name": "Zeros", "config": {"dtype": "float32"}}, "kernel_regularizer": {"class_name": "L1L2", "config": {"l1": 0.0, "l2": 0.0}}, "bias_regularizer": null, "activity_regularizer": null, "kernel_constraint": null, "bias_constraint": null}, "inbound_nodes": [[["batch_normalization_130", 0, 0, {}]]]}, {"name": "batch_normalization_131", "class_name": "BatchNormalization", "config": {"name": "batch_normalization_131", "trainable": true, "dtype": "float32", "axis": [3], "momentum": 0.99, "epsilon": 0.001, "center": true, "scale": true, "beta_initializer": {"class_name": "Zeros", "config": {"dtype": "float32"}}, "gamma_initializer": {"class_name": "Ones", "config": {"dtype": "float32"}}, "moving_mean_initializer": {"class_name": "Zeros", "config": {"dtype": "float32"}}, "moving_variance_initializer": {"class_name": "Ones", "config": {"dtype": "float32"}}, "beta_regularizer": null, "gamma_regularizer": null, "beta_constraint": null, "gamma_constraint": null}, "inbound_nodes": [[["conv2d_148", 0, 0, {}]]]}, {"name": "conv2d_149", "class_name": "Conv2D", "config": {"name": "conv2d_149", "trainable": true, "dtype": "float32", "filters": 128, "kernel_size": [1, 1], "strides": [1, 1], "padding": "same", "data_format": "channels_last", "dilation_rate": [1, 1], "activation": "linear", "use_bias": true, "kernel_initializer": {"class_name": "VarianceScaling", "config": {"scale": 1.0, "mode": "fan_avg", "distribution": "uniform", "seed": null, "dtype": "float32"}}, "bias_initializer": {"class_name": "Zeros", "config": {"dtype": "float32"}}, "kernel_regularizer": {"class_name": "L1L2", "config": {"l1": 0.0, "l2": 0.0}}, "bias_regularizer": null, "activity_regularizer": null, "kernel_constraint": null, "bias_constraint": null}, "inbound_nodes": [[["batch_normalization_131", 0, 0, {}]]]}, {"name": "add_33", "class_name": "Add", "config": {"name": "add_33", "trainable": true, "dtype": "float32"}, "inbound_nodes": [[["batch_normalization_129", 0, 0, {}], ["conv2d_149", 0, 0, {}]]]}, {"name": "activation_33", "class_name": "Activation", "config": {"name": "activation_33", "trainable": true, "dtype": "float32", "activation": "relu"}, "inbound_nodes": [[["add_33", 0, 0, {}]]]}, {"name": "batch_normalization_132", "class_name": "BatchNormalization", "config": {"name": "batch_normalization_132", "trainable": true, "dtype": "float32", "axis": [3], "momentum": 0.99, "epsilon": 0.001, "center": true, "scale": true, "beta_initializer": {"class_name": "Zeros", "config": {"dtype": "float32"}}, "gamma_initializer": {"class_name": "Ones", "config": {"dtype": "float32"}}, "moving_mean_initializer": {"class_name": "Zeros", "config": {"dtype": "float32"}}, "moving_variance_initializer": {"class_name": "Ones", "config": {"dtype": "float32"}}, "beta_regularizer": null, "gamma_regularizer": null, "beta_constraint": null, "gamma_constraint": null}, "inbound_nodes": [[["activation_33", 0, 0, {}]]]}, {"name": "conv2d_150", "class_name": "Conv2D", "config": {"name": "conv2d_150", "trainable": true, "dtype": "float32", "filters": 64, "kernel_size": [1, 1], "strides": [1, 1], "padding": "same", "data_format": "channels_last", "dilation_rate": [1, 1], "activation": "relu", "use_bias": true, "kernel_initializer": {"class_name": "VarianceScaling", "config": {"scale": 1.0, "mode": "fan_avg", "distribution": "uniform", "seed": null, "dtype": "float32"}}, "bias_initializer": {"class_name": "Zeros", "config": {"dtype": "float32"}}, "kernel_regularizer": {"class_name": "L1L2", "config": {"l1": 0.0, "l2": 0.0}}, "bias_regularizer": null, "activity_regularizer": null, "kernel_constraint": null, "bias_constraint": null}, "inbound_nodes": [[["batch_normalization_132", 0, 0, {}]]]}, {"name": "batch_normalization_133", "class_name": "BatchNormalization", "config": {"name": "batch_normalization_133", "trainable": true, "dtype": "float32", "axis": [3], "momentum": 0.99, "epsilon": 0.001, "center": true, "scale": true, "beta_initializer": {"class_name": "Zeros", "config": {"dtype": "float32"}}, "gamma_initializer": {"class_name": "Ones", "config": {"dtype": "float32"}}, "moving_mean_initializer": {"class_name": "Zeros", "config": {"dtype": "float32"}}, "moving_variance_initializer": {"class_name": "Ones", "config": {"dtype": "float32"}}, "beta_regularizer": null, "gamma_regularizer": null, "beta_constraint": null, "gamma_constraint": null}, "inbound_nodes": [[["conv2d_150", 0, 0, {}]]]}, {"name": "conv2d_151", "class_name": "Conv2D", "config": {"name": "conv2d_151", "trainable": true, "dtype": "float32", "filters": 64, "kernel_size": [3, 3], "strides": [1, 1], "padding": "same", "data_format": "channels_last", "dilation_rate": [1, 1], "activation": "relu", "use_bias": true, "kernel_initializer": {"class_name": "VarianceScaling", "config": {"scale": 1.0, "mode": "fan_avg", "distribution": "uniform", "seed": null, "dtype": "float32"}}, "bias_initializer": {"class_name": "Zeros", "config": {"dtype": "float32"}}, "kernel_regularizer": {"class_name": "L1L2", "config": {"l1": 0.0, "l2": 0.0}}, "bias_regularizer": null, "activity_regularizer": null, "kernel_constraint": null, "bias_constraint": null}, "inbound_nodes": [[["batch_normalization_133", 0, 0, {}]]]}, {"name": "batch_normalization_134", "class_name": "BatchNormalization", "config": {"name": "batch_normalization_134", "trainable": true, "dtype": "float32", "axis": [3], "momentum": 0.99, "epsilon": 0.001, "center": true, "scale": true, "beta_initializer": {"class_name": "Zeros", "config": {"dtype": "float32"}}, "gamma_initializer": {"class_name": "Ones", "config": {"dtype": "float32"}}, "moving_mean_initializer": {"class_name": "Zeros", "config": {"dtype": "float32"}}, "moving_variance_initializer": {"class_name": "Ones", "config": {"dtype": "float32"}}, "beta_regularizer": null, "gamma_regularizer": null, "beta_constraint": null, "gamma_constraint": null}, "inbound_nodes": [[["conv2d_151", 0, 0, {}]]]}, {"name": "conv2d_152", "class_name": "Conv2D", "config": {"name": "conv2d_152", "trainable": true, "dtype": "float32", "filters": 128, "kernel_size": [1, 1], "strides": [1, 1], "padding": "same", "data_format": "channels_last", "dilation_rate": [1, 1], "activation": "linear", "use_bias": true, "kernel_initializer": {"class_name": "VarianceScaling", "config": {"scale": 1.0, "mode": "fan_avg", "distribution": "uniform", "seed": null, "dtype": "float32"}}, "bias_initializer": {"class_name": "Zeros", "config": {"dtype": "float32"}}, "kernel_regularizer": {"class_name": "L1L2", "config": {"l1": 0.0, "l2": 0.0}}, "bias_regularizer": null, "activity_regularizer": null, "kernel_constraint": null, "bias_constraint": null}, "inbound_nodes": [[["batch_normalization_134", 0, 0, {}]]]}, {"name": "add_34", "class_name": "Add", "config": {"name": "add_34", "trainable": true, "dtype": "float32"}, "inbound_nodes": [[["batch_normalization_132", 0, 0, {}], ["conv2d_152", 0, 0, {}]]]}, {"name": "activation_34", "class_name": "Activation", "config": {"name": "activation_34", "trainable": true, "dtype": "float32", "activation": "relu"}, "inbound_nodes": [[["add_34", 0, 0, {}]]]}, {"name": "batch_normalization_135", "class_name": "BatchNormalization", "config": {"name": "batch_normalization_135", "trainable": true, "dtype": "float32", "axis": [3], "momentum": 0.99, "epsilon": 0.001, "center": true, "scale": true, "beta_initializer": {"class_name": "Zeros", "config": {"dtype": "float32"}}, "gamma_initializer": {"class_name": "Ones", "config": {"dtype": "float32"}}, "moving_mean_initializer": {"class_name": "Zeros", "config": {"dtype": "float32"}}, "moving_variance_initializer": {"class_name": "Ones", "config": {"dtype": "float32"}}, "beta_regularizer": null, "gamma_regularizer": null, "beta_constraint": null, "gamma_constraint": null}, "inbound_nodes": [[["activation_34", 0, 0, {}]]]}, {"name": "conv2d_153", "class_name": "Conv2D", "config": {"name": "conv2d_153", "trainable": true, "dtype": "float32", "filters": 64, "kernel_size": [1, 1], "strides": [1, 1], "padding": "same", "data_format": "channels_last", "dilation_rate": [1, 1], "activation": "relu", "use_bias": true, "kernel_initializer": {"class_name": "VarianceScaling", "config": {"scale": 1.0, "mode": "fan_avg", "distribution": "uniform", "seed": null, "dtype": "float32"}}, "bias_initializer": {"class_name": "Zeros", "config": {"dtype": "float32"}}, "kernel_regularizer": {"class_name": "L1L2", "config": {"l1": 0.0, "l2": 0.0}}, "bias_regularizer": null, "activity_regularizer": null, "kernel_constraint": null, "bias_constraint": null}, "inbound_nodes": [[["batch_normalization_135", 0, 0, {}]]]}, {"name": "batch_normalization_136", "class_name": "BatchNormalization", "config": {"name": "batch_normalization_136", "trainable": true, "dtype": "float32", "axis": [3], "momentum": 0.99, "epsilon": 0.001, "center": true, "scale": true, "beta_initializer": {"class_name": "Zeros", "config": {"dtype": "float32"}}, "gamma_initializer": {"class_name": "Ones", "config": {"dtype": "float32"}}, "moving_mean_initializer": {"class_name": "Zeros", "config": {"dtype": "float32"}}, "moving_variance_initializer": {"class_name": "Ones", "config": {"dtype": "float32"}}, "beta_regularizer": null, "gamma_regularizer": null, "beta_constraint": null, "gamma_constraint": null}, "inbound_nodes": [[["conv2d_153", 0, 0, {}]]]}, {"name": "conv2d_154", "class_name": "Conv2D", "config": {"name": "conv2d_154", "trainable": true, "dtype": "float32", "filters": 64, "kernel_size": [3, 3], "strides": [1, 1], "padding": "same", "data_format": "channels_last", "dilation_rate": [1, 1], "activation": "relu", "use_bias": true, "kernel_initializer": {"class_name": "VarianceScaling", "config": {"scale": 1.0, "mode": "fan_avg", "distribution": "uniform", "seed": null, "dtype": "float32"}}, "bias_initializer": {"class_name": "Zeros", "config": {"dtype": "float32"}}, "kernel_regularizer": {"class_name": "L1L2", "config": {"l1": 0.0, "l2": 0.0}}, "bias_regularizer": null, "activity_regularizer": null, "kernel_constraint": null, "bias_constraint": null}, "inbound_nodes": [[["batch_normalization_136", 0, 0, {}]]]}, {"name": "batch_normalization_137", "class_name": "BatchNormalization", "config": {"name": "batch_normalization_137", "trainable": true, "dtype": "float32", "axis": [3], "momentum": 0.99, "epsilon": 0.001, "center": true, "scale": true, "beta_initializer": {"class_name": "Zeros", "config": {"dtype": "float32"}}, "gamma_initializer": {"class_name": "Ones", "config": {"dtype": "float32"}}, "moving_mean_initializer": {"class_name": "Zeros", "config": {"dtype": "float32"}}, "moving_variance_initializer": {"class_name": "Ones", "config": {"dtype": "float32"}}, "beta_regularizer": null, "gamma_regularizer": null, "beta_constraint": null, "gamma_constraint": null}, "inbound_nodes": [[["conv2d_154", 0, 0, {}]]]}, {"name": "conv2d_155", "class_name": "Conv2D", "config": {"name": "conv2d_155", "trainable": true, "dtype": "float32", "filters": 128, "kernel_size": [1, 1], "strides": [1, 1], "padding": "same", "data_format": "channels_last", "dilation_rate": [1, 1], "activation": "linear", "use_bias": true, "kernel_initializer": {"class_name": "VarianceScaling", "config": {"scale": 1.0, "mode": "fan_avg", "distribution": "uniform", "seed": null, "dtype": "float32"}}, "bias_initializer": {"class_name": "Zeros", "config": {"dtype": "float32"}}, "kernel_regularizer": {"class_name": "L1L2", "config": {"l1": 0.0, "l2": 0.0}}, "bias_regularizer": null, "activity_regularizer": null, "kernel_constraint": null, "bias_constraint": null}, "inbound_nodes": [[["batch_normalization_137", 0, 0, {}]]]}, {"name": "add_35", "class_name": "Add", "config": {"name": "add_35", "trainable": true, "dtype": "float32"}, "inbound_nodes": [[["batch_normalization_135", 0, 0, {}], ["conv2d_155", 0, 0, {}]]]}, {"name": "activation_35", "class_name": "Activation", "config": {"name": "activation_35", "trainable": true, "dtype": "float32", "activation": "relu"}, "inbound_nodes": [[["add_35", 0, 0, {}]]]}, {"name": "batch_normalization_138", "class_name": "BatchNormalization", "config": {"name": "batch_normalization_138", "trainable": true, "dtype": "float32", "axis": [3], "momentum": 0.99, "epsilon": 0.001, "center": true, "scale": true, "beta_initializer": {"class_name": "Zeros", "config": {"dtype": "float32"}}, "gamma_initializer": {"class_name": "Ones", "config": {"dtype": "float32"}}, "moving_mean_initializer": {"class_name": "Zeros", "config": {"dtype": "float32"}}, "moving_variance_initializer": {"class_name": "Ones", "config": {"dtype": "float32"}}, "beta_regularizer": null, "gamma_regularizer": null, "beta_constraint": null, "gamma_constraint": null}, "inbound_nodes": [[["activation_35", 0, 0, {}]]]}, {"name": "conv2d_156", "class_name": "Conv2D", "config": {"name": "conv2d_156", "trainable": true, "dtype": "float32", "filters": 64, "kernel_size": [1, 1], "strides": [1, 1], "padding": "same", "data_format": "channels_last", "dilation_rate": [1, 1], "activation": "relu", "use_bias": true, "kernel_initializer": {"class_name": "VarianceScaling", "config": {"scale": 1.0, "mode": "fan_avg", "distribution": "uniform", "seed": null, "dtype": "float32"}}, "bias_initializer": {"class_name": "Zeros", "config": {"dtype": "float32"}}, "kernel_regularizer": {"class_name": "L1L2", "config": {"l1": 0.0, "l2": 0.0}}, "bias_regularizer": null, "activity_regularizer": null, "kernel_constraint": null, "bias_constraint": null}, "inbound_nodes": [[["batch_normalization_138", 0, 0, {}]]]}, {"name": "batch_normalization_139", "class_name": "BatchNormalization", "config": {"name": "batch_normalization_139", "trainable": true, "dtype": "float32", "axis": [3], "momentum": 0.99, "epsilon": 0.001, "center": true, "scale": true, "beta_initializer": {"class_name": "Zeros", "config": {"dtype": "float32"}}, "gamma_initializer": {"class_name": "Ones", "config": {"dtype": "float32"}}, "moving_mean_initializer": {"class_name": "Zeros", "config": {"dtype": "float32"}}, "moving_variance_initializer": {"class_name": "Ones", "config": {"dtype": "float32"}}, "beta_regularizer": null, "gamma_regularizer": null, "beta_constraint": null, "gamma_constraint": null}, "inbound_nodes": [[["conv2d_156", 0, 0, {}]]]}, {"name": "conv2d_157", "class_name": "Conv2D", "config": {"name": "conv2d_157", "trainable": true, "dtype": "float32", "filters": 64, "kernel_size": [3, 3], "strides": [1, 1], "padding": "same", "data_format": "channels_last", "dilation_rate": [1, 1], "activation": "relu", "use_bias": true, "kernel_initializer": {"class_name": "VarianceScaling", "config": {"scale": 1.0, "mode": "fan_avg", "distribution": "uniform", "seed": null, "dtype": "float32"}}, "bias_initializer": {"class_name": "Zeros", "config": {"dtype": "float32"}}, "kernel_regularizer": {"class_name": "L1L2", "config": {"l1": 0.0, "l2": 0.0}}, "bias_regularizer": null, "activity_regularizer": null, "kernel_constraint": null, "bias_constraint": null}, "inbound_nodes": [[["batch_normalization_139", 0, 0, {}]]]}, {"name": "batch_normalization_140", "class_name": "BatchNormalization", "config": {"name": "batch_normalization_140", "trainable": true, "dtype": "float32", "axis": [3], "momentum": 0.99, "epsilon": 0.001, "center": true, "scale": true, "beta_initializer": {"class_name": "Zeros", "config": {"dtype": "float32"}}, "gamma_initializer": {"class_name": "Ones", "config": {"dtype": "float32"}}, "moving_mean_initializer": {"class_name": "Zeros", "config": {"dtype": "float32"}}, "moving_variance_initializer": {"class_name": "Ones", "config": {"dtype": "float32"}}, "beta_regularizer": null, "gamma_regularizer": null, "beta_constraint": null, "gamma_constraint": null}, "inbound_nodes": [[["conv2d_157", 0, 0, {}]]]}, {"name": "conv2d_158", "class_name": "Conv2D", "config": {"name": "conv2d_158", "trainable": true, "dtype": "float32", "filters": 128, "kernel_size": [1, 1], "strides": [1, 1], "padding": "same", "data_format": "channels_last", "dilation_rate": [1, 1], "activation": "linear", "use_bias": true, "kernel_initializer": {"class_name": "VarianceScaling", "config": {"scale": 1.0, "mode": "fan_avg", "distribution": "uniform", "seed": null, "dtype": "float32"}}, "bias_initializer": {"class_name": "Zeros", "config": {"dtype": "float32"}}, "kernel_regularizer": {"class_name": "L1L2", "config": {"l1": 0.0, "l2": 0.0}}, "bias_regularizer": null, "activity_regularizer": null, "kernel_constraint": null, "bias_constraint": null}, "inbound_nodes": [[["batch_normalization_140", 0, 0, {}]]]}, {"name": "add_36", "class_name": "Add", "config": {"name": "add_36", "trainable": true, "dtype": "float32"}, "inbound_nodes": [[["batch_normalization_138", 0, 0, {}], ["conv2d_158", 0, 0, {}]]]}, {"name": "activation_36", "class_name": "Activation", "config": {"name": "activation_36", "trainable": true, "dtype": "float32", "activation": "relu"}, "inbound_nodes": [[["add_36", 0, 0, {}]]]}, {"name": "max_pooling2d_32", "class_name": "MaxPooling2D", "config": {"name": "max_pooling2d_32", "trainable": true, "dtype": "float32", "pool_size": [2, 2], "padding": "valid", "strides": [2, 2], "data_format": "channels_last"}, "inbound_nodes": [[["activation_36", 0, 0, {}]]]}, {"name": "batch_normalization_141", "class_name": "BatchNormalization", "config": {"name": "batch_normalization_141", "trainable": true, "dtype": "float32", "axis": [3], "momentum": 0.99, "epsilon": 0.001, "center": true, "scale": true, "beta_initializer": {"class_name": "Zeros", "config": {"dtype": "float32"}}, "gamma_initializer": {"class_name": "Ones", "config": {"dtype": "float32"}}, "moving_mean_initializer": {"class_name": "Zeros", "config": {"dtype": "float32"}}, "moving_variance_initializer": {"class_name": "Ones", "config": {"dtype": "float32"}}, "beta_regularizer": null, "gamma_regularizer": null, "beta_constraint": null, "gamma_constraint": null}, "inbound_nodes": [[["max_pooling2d_32", 0, 0, {}]]]}, {"name": "conv2d_159", "class_name": "Conv2D", "config": {"name": "conv2d_159", "trainable": true, "dtype": "float32", "filters": 256, "kernel_size": [1, 1], "strides": [1, 1], "padding": "same", "data_format": "channels_last", "dilation_rate": [1, 1], "activation": "relu", "use_bias": true, "kernel_initializer": {"class_name": "VarianceScaling", "config": {"scale": 1.0, "mode": "fan_avg", "distribution": "uniform", "seed": null, "dtype": "float32"}}, "bias_initializer": {"class_name": "Zeros", "config": {"dtype": "float32"}}, "kernel_regularizer": {"class_name": "L1L2", "config": {"l1": 0.0, "l2": 0.0}}, "bias_regularizer": null, "activity_regularizer": null, "kernel_constraint": null, "bias_constraint": null}, "inbound_nodes": [[["batch_normalization_141", 0, 0, {}]]]}, {"name": "batch_normalization_142", "class_name": "BatchNormalization", "config": {"name": "batch_normalization_142", "trainable": true, "dtype": "float32", "axis": [3], "momentum": 0.99, "epsilon": 0.001, "center": true, "scale": true, "beta_initializer": {"class_name": "Zeros", "config": {"dtype": "float32"}}, "gamma_initializer": {"class_name": "Ones", "config": {"dtype": "float32"}}, "moving_mean_initializer": {"class_name": "Zeros", "config": {"dtype": "float32"}}, "moving_variance_initializer": {"class_name": "Ones", "config": {"dtype": "float32"}}, "beta_regularizer": null, "gamma_regularizer": null, "beta_constraint": null, "gamma_constraint": null}, "inbound_nodes": [[["conv2d_159", 0, 0, {}]]]}, {"name": "conv2d_160", "class_name": "Conv2D", "config": {"name": "conv2d_160", "trainable": true, "dtype": "float32", "filters": 64, "kernel_size": [1, 1], "strides": [1, 1], "padding": "same", "data_format": "channels_last", "dilation_rate": [1, 1], "activation": "relu", "use_bias": true, "kernel_initializer": {"class_name": "VarianceScaling", "config": {"scale": 1.0, "mode": "fan_avg", "distribution": "uniform", "seed": null, "dtype": "float32"}}, "bias_initializer": {"class_name": "Zeros", "config": {"dtype": "float32"}}, "kernel_regularizer": {"class_name": "L1L2", "config": {"l1": 0.0, "l2": 0.0}}, "bias_regularizer": null, "activity_regularizer": null, "kernel_constraint": null, "bias_constraint": null}, "inbound_nodes": [[["batch_normalization_142", 0, 0, {}]]]}, {"name": "batch_normalization_143", "class_name": "BatchNormalization", "config": {"name": "batch_normalization_143", "trainable": true, "dtype": "float32", "axis": [3], "momentum": 0.99, "epsilon": 0.001, "center": true, "scale": true, "beta_initializer": {"class_name": "Zeros", "config": {"dtype": "float32"}}, "gamma_initializer": {"class_name": "Ones", "config": {"dtype": "float32"}}, "moving_mean_initializer": {"class_name": "Zeros", "config": {"dtype": "float32"}}, "moving_variance_initializer": {"class_name": "Ones", "config": {"dtype": "float32"}}, "beta_regularizer": null, "gamma_regularizer": null, "beta_constraint": null, "gamma_constraint": null}, "inbound_nodes": [[["conv2d_160", 0, 0, {}]]]}, {"name": "conv2d_161", "class_name": "Conv2D", "config": {"name": "conv2d_161", "trainable": true, "dtype": "float32", "filters": 64, "kernel_size": [3, 3], "strides": [1, 1], "padding": "same", "data_format": "channels_last", "dilation_rate": [1, 1], "activation": "relu", "use_bias": true, "kernel_initializer": {"class_name": "VarianceScaling", "config": {"scale": 1.0, "mode": "fan_avg", "distribution": "uniform", "seed": null, "dtype": "float32"}}, "bias_initializer": {"class_name": "Zeros", "config": {"dtype": "float32"}}, "kernel_regularizer": {"class_name": "L1L2", "config": {"l1": 0.0, "l2": 0.0}}, "bias_regularizer": null, "activity_regularizer": null, "kernel_constraint": null, "bias_constraint": null}, "inbound_nodes": [[["batch_normalization_143", 0, 0, {}]]]}, {"name": "batch_normalization_144", "class_name": "BatchNormalization", "config": {"name": "batch_normalization_144", "trainable": true, "dtype": "float32", "axis": [3], "momentum": 0.99, "epsilon": 0.001, "center": true, "scale": true, "beta_initializer": {"class_name": "Zeros", "config": {"dtype": "float32"}}, "gamma_initializer": {"class_name": "Ones", "config": {"dtype": "float32"}}, "moving_mean_initializer": {"class_name": "Zeros", "config": {"dtype": "float32"}}, "moving_variance_initializer": {"class_name": "Ones", "config": {"dtype": "float32"}}, "beta_regularizer": null, "gamma_regularizer": null, "beta_constraint": null, "gamma_constraint": null}, "inbound_nodes": [[["conv2d_161", 0, 0, {}]]]}, {"name": "conv2d_162", "class_name": "Conv2D", "config": {"name": "conv2d_162", "trainable": true, "dtype": "float32", "filters": 256, "kernel_size": [1, 1], "strides": [1, 1], "padding": "same", "data_format": "channels_last", "dilation_rate": [1, 1], "activation": "linear", "use_bias": true, "kernel_initializer": {"class_name": "VarianceScaling", "config": {"scale": 1.0, "mode": "fan_avg", "distribution": "uniform", "seed": null, "dtype": "float32"}}, "bias_initializer": {"class_name": "Zeros", "config": {"dtype": "float32"}}, "kernel_regularizer": {"class_name": "L1L2", "config": {"l1": 0.0, "l2": 0.0}}, "bias_regularizer": null, "activity_regularizer": null, "kernel_constraint": null, "bias_constraint": null}, "inbound_nodes": [[["batch_normalization_144", 0, 0, {}]]]}, {"name": "add_37", "class_name": "Add", "config": {"name": "add_37", "trainable": true, "dtype": "float32"}, "inbound_nodes": [[["batch_normalization_142", 0, 0, {}], ["conv2d_162", 0, 0, {}]]]}, {"name": "activation_37", "class_name": "Activation", "config": {"name": "activation_37", "trainable": true, "dtype": "float32", "activation": "relu"}, "inbound_nodes": [[["add_37", 0, 0, {}]]]}, {"name": "batch_normalization_145", "class_name": "BatchNormalization", "config": {"name": "batch_normalization_145", "trainable": true, "dtype": "float32", "axis": [3], "momentum": 0.99, "epsilon": 0.001, "center": true, "scale": true, "beta_initializer": {"class_name": "Zeros", "config": {"dtype": "float32"}}, "gamma_initializer": {"class_name": "Ones", "config": {"dtype": "float32"}}, "moving_mean_initializer": {"class_name": "Zeros", "config": {"dtype": "float32"}}, "moving_variance_initializer": {"class_name": "Ones", "config": {"dtype": "float32"}}, "beta_regularizer": null, "gamma_regularizer": null, "beta_constraint": null, "gamma_constraint": null}, "inbound_nodes": [[["activation_37", 0, 0, {}]]]}, {"name": "conv2d_163", "class_name": "Conv2D", "config": {"name": "conv2d_163", "trainable": true, "dtype": "float32", "filters": 64, "kernel_size": [1, 1], "strides": [1, 1], "padding": "same", "data_format": "channels_last", "dilation_rate": [1, 1], "activation": "relu", "use_bias": true, "kernel_initializer": {"class_name": "VarianceScaling", "config": {"scale": 1.0, "mode": "fan_avg", "distribution": "uniform", "seed": null, "dtype": "float32"}}, "bias_initializer": {"class_name": "Zeros", "config": {"dtype": "float32"}}, "kernel_regularizer": {"class_name": "L1L2", "config": {"l1": 0.0, "l2": 0.0}}, "bias_regularizer": null, "activity_regularizer": null, "kernel_constraint": null, "bias_constraint": null}, "inbound_nodes": [[["batch_normalization_145", 0, 0, {}]]]}, {"name": "batch_normalization_146", "class_name": "BatchNormalization", "config": {"name": "batch_normalization_146", "trainable": true, "dtype": "float32", "axis": [3], "momentum": 0.99, "epsilon": 0.001, "center": true, "scale": true, "beta_initializer": {"class_name": "Zeros", "config": {"dtype": "float32"}}, "gamma_initializer": {"class_name": "Ones", "config": {"dtype": "float32"}}, "moving_mean_initializer": {"class_name": "Zeros", "config": {"dtype": "float32"}}, "moving_variance_initializer": {"class_name": "Ones", "config": {"dtype": "float32"}}, "beta_regularizer": null, "gamma_regularizer": null, "beta_constraint": null, "gamma_constraint": null}, "inbound_nodes": [[["conv2d_163", 0, 0, {}]]]}, {"name": "conv2d_164", "class_name": "Conv2D", "config": {"name": "conv2d_164", "trainable": true, "dtype": "float32", "filters": 64, "kernel_size": [3, 3], "strides": [1, 1], "padding": "same", "data_format": "channels_last", "dilation_rate": [1, 1], "activation": "relu", "use_bias": true, "kernel_initializer": {"class_name": "VarianceScaling", "config": {"scale": 1.0, "mode": "fan_avg", "distribution": "uniform", "seed": null, "dtype": "float32"}}, "bias_initializer": {"class_name": "Zeros", "config": {"dtype": "float32"}}, "kernel_regularizer": {"class_name": "L1L2", "config": {"l1": 0.0, "l2": 0.0}}, "bias_regularizer": null, "activity_regularizer": null, "kernel_constraint": null, "bias_constraint": null}, "inbound_nodes": [[["batch_normalization_146", 0, 0, {}]]]}, {"name": "batch_normalization_147", "class_name": "BatchNormalization", "config": {"name": "batch_normalization_147", "trainable": true, "dtype": "float32", "axis": [3], "momentum": 0.99, "epsilon": 0.001, "center": true, "scale": true, "beta_initializer": {"class_name": "Zeros", "config": {"dtype": "float32"}}, "gamma_initializer": {"class_name": "Ones", "config": {"dtype": "float32"}}, "moving_mean_initializer": {"class_name": "Zeros", "config": {"dtype": "float32"}}, "moving_variance_initializer": {"class_name": "Ones", "config": {"dtype": "float32"}}, "beta_regularizer": null, "gamma_regularizer": null, "beta_constraint": null, "gamma_constraint": null}, "inbound_nodes": [[["conv2d_164", 0, 0, {}]]]}, {"name": "conv2d_165", "class_name": "Conv2D", "config": {"name": "conv2d_165", "trainable": true, "dtype": "float32", "filters": 256, "kernel_size": [1, 1], "strides": [1, 1], "padding": "same", "data_format": "channels_last", "dilation_rate": [1, 1], "activation": "linear", "use_bias": true, "kernel_initializer": {"class_name": "VarianceScaling", "config": {"scale": 1.0, "mode": "fan_avg", "distribution": "uniform", "seed": null, "dtype": "float32"}}, "bias_initializer": {"class_name": "Zeros", "config": {"dtype": "float32"}}, "kernel_regularizer": {"class_name": "L1L2", "config": {"l1": 0.0, "l2": 0.0}}, "bias_regularizer": null, "activity_regularizer": null, "kernel_constraint": null, "bias_constraint": null}, "inbound_nodes": [[["batch_normalization_147", 0, 0, {}]]]}, {"name": "add_38", "class_name": "Add", "config": {"name": "add_38", "trainable": true, "dtype": "float32"}, "inbound_nodes": [[["batch_normalization_145", 0, 0, {}], ["conv2d_165", 0, 0, {}]]]}, {"name": "activation_38", "class_name": "Activation", "config": {"name": "activation_38", "trainable": true, "dtype": "float32", "activation": "relu"}, "inbound_nodes": [[["add_38", 0, 0, {}]]]}, {"name": "batch_normalization_148", "class_name": "BatchNormalization", "config": {"name": "batch_normalization_148", "trainable": true, "dtype": "float32", "axis": [3], "momentum": 0.99, "epsilon": 0.001, "center": true, "scale": true, "beta_initializer": {"class_name": "Zeros", "config": {"dtype": "float32"}}, "gamma_initializer": {"class_name": "Ones", "config": {"dtype": "float32"}}, "moving_mean_initializer": {"class_name": "Zeros", "config": {"dtype": "float32"}}, "moving_variance_initializer": {"class_name": "Ones", "config": {"dtype": "float32"}}, "beta_regularizer": null, "gamma_regularizer": null, "beta_constraint": null, "gamma_constraint": null}, "inbound_nodes": [[["activation_38", 0, 0, {}]]]}, {"name": "conv2d_166", "class_name": "Conv2D", "config": {"name": "conv2d_166", "trainable": true, "dtype": "float32", "filters": 64, "kernel_size": [1, 1], "strides": [1, 1], "padding": "same", "data_format": "channels_last", "dilation_rate": [1, 1], "activation": "relu", "use_bias": true, "kernel_initializer": {"class_name": "VarianceScaling", "config": {"scale": 1.0, "mode": "fan_avg", "distribution": "uniform", "seed": null, "dtype": "float32"}}, "bias_initializer": {"class_name": "Zeros", "config": {"dtype": "float32"}}, "kernel_regularizer": {"class_name": "L1L2", "config": {"l1": 0.0, "l2": 0.0}}, "bias_regularizer": null, "activity_regularizer": null, "kernel_constraint": null, "bias_constraint": null}, "inbound_nodes": [[["batch_normalization_148", 0, 0, {}]]]}, {"name": "batch_normalization_149", "class_name": "BatchNormalization", "config": {"name": "batch_normalization_149", "trainable": true, "dtype": "float32", "axis": [3], "momentum": 0.99, "epsilon": 0.001, "center": true, "scale": true, "beta_initializer": {"class_name": "Zeros", "config": {"dtype": "float32"}}, "gamma_initializer": {"class_name": "Ones", "config": {"dtype": "float32"}}, "moving_mean_initializer": {"class_name": "Zeros", "config": {"dtype": "float32"}}, "moving_variance_initializer": {"class_name": "Ones", "config": {"dtype": "float32"}}, "beta_regularizer": null, "gamma_regularizer": null, "beta_constraint": null, "gamma_constraint": null}, "inbound_nodes": [[["conv2d_166", 0, 0, {}]]]}, {"name": "conv2d_167", "class_name": "Conv2D", "config": {"name": "conv2d_167", "trainable": true, "dtype": "float32", "filters": 64, "kernel_size": [3, 3], "strides": [1, 1], "padding": "same", "data_format": "channels_last", "dilation_rate": [1, 1], "activation": "relu", "use_bias": true, "kernel_initializer": {"class_name": "VarianceScaling", "config": {"scale": 1.0, "mode": "fan_avg", "distribution": "uniform", "seed": null, "dtype": "float32"}}, "bias_initializer": {"class_name": "Zeros", "config": {"dtype": "float32"}}, "kernel_regularizer": {"class_name": "L1L2", "config": {"l1": 0.0, "l2": 0.0}}, "bias_regularizer": null, "activity_regularizer": null, "kernel_constraint": null, "bias_constraint": null}, "inbound_nodes": [[["batch_normalization_149", 0, 0, {}]]]}, {"name": "batch_normalization_150", "class_name": "BatchNormalization", "config": {"name": "batch_normalization_150", "trainable": true, "dtype": "float32", "axis": [3], "momentum": 0.99, "epsilon": 0.001, "center": true, "scale": true, "beta_initializer": {"class_name": "Zeros", "config": {"dtype": "float32"}}, "gamma_initializer": {"class_name": "Ones", "config": {"dtype": "float32"}}, "moving_mean_initializer": {"class_name": "Zeros", "config": {"dtype": "float32"}}, "moving_variance_initializer": {"class_name": "Ones", "config": {"dtype": "float32"}}, "beta_regularizer": null, "gamma_regularizer": null, "beta_constraint": null, "gamma_constraint": null}, "inbound_nodes": [[["conv2d_167", 0, 0, {}]]]}, {"name": "conv2d_168", "class_name": "Conv2D", "config": {"name": "conv2d_168", "trainable": true, "dtype": "float32", "filters": 256, "kernel_size": [1, 1], "strides": [1, 1], "padding": "same", "data_format": "channels_last", "dilation_rate": [1, 1], "activation": "linear", "use_bias": true, "kernel_initializer": {"class_name": "VarianceScaling", "config": {"scale": 1.0, "mode": "fan_avg", "distribution": "uniform", "seed": null, "dtype": "float32"}}, "bias_initializer": {"class_name": "Zeros", "config": {"dtype": "float32"}}, "kernel_regularizer": {"class_name": "L1L2", "config": {"l1": 0.0, "l2": 0.0}}, "bias_regularizer": null, "activity_regularizer": null, "kernel_constraint": null, "bias_constraint": null}, "inbound_nodes": [[["batch_normalization_150", 0, 0, {}]]]}, {"name": "add_39", "class_name": "Add", "config": {"name": "add_39", "trainable": true, "dtype": "float32"}, "inbound_nodes": [[["batch_normalization_148", 0, 0, {}], ["conv2d_168", 0, 0, {}]]]}, {"name": "activation_39", "class_name": "Activation", "config": {"name": "activation_39", "trainable": true, "dtype": "float32", "activation": "relu"}, "inbound_nodes": [[["add_39", 0, 0, {}]]]}, {"name": "batch_normalization_151", "class_name": "BatchNormalization", "config": {"name": "batch_normalization_151", "trainable": true, "dtype": "float32", "axis": [3], "momentum": 0.99, "epsilon": 0.001, "center": true, "scale": true, "beta_initializer": {"class_name": "Zeros", "config": {"dtype": "float32"}}, "gamma_initializer": {"class_name": "Ones", "config": {"dtype": "float32"}}, "moving_mean_initializer": {"class_name": "Zeros", "config": {"dtype": "float32"}}, "moving_variance_initializer": {"class_name": "Ones", "config": {"dtype": "float32"}}, "beta_regularizer": null, "gamma_regularizer": null, "beta_constraint": null, "gamma_constraint": null}, "inbound_nodes": [[["activation_39", 0, 0, {}]]]}, {"name": "conv2d_169", "class_name": "Conv2D", "config": {"name": "conv2d_169", "trainable": true, "dtype": "float32", "filters": 64, "kernel_size": [1, 1], "strides": [1, 1], "padding": "same", "data_format": "channels_last", "dilation_rate": [1, 1], "activation": "relu", "use_bias": true, "kernel_initializer": {"class_name": "VarianceScaling", "config": {"scale": 1.0, "mode": "fan_avg", "distribution": "uniform", "seed": null, "dtype": "float32"}}, "bias_initializer": {"class_name": "Zeros", "config": {"dtype": "float32"}}, "kernel_regularizer": {"class_name": "L1L2", "config": {"l1": 0.0, "l2": 0.0}}, "bias_regularizer": null, "activity_regularizer": null, "kernel_constraint": null, "bias_constraint": null}, "inbound_nodes": [[["batch_normalization_151", 0, 0, {}]]]}, {"name": "batch_normalization_152", "class_name": "BatchNormalization", "config": {"name": "batch_normalization_152", "trainable": true, "dtype": "float32", "axis": [3], "momentum": 0.99, "epsilon": 0.001, "center": true, "scale": true, "beta_initializer": {"class_name": "Zeros", "config": {"dtype": "float32"}}, "gamma_initializer": {"class_name": "Ones", "config": {"dtype": "float32"}}, "moving_mean_initializer": {"class_name": "Zeros", "config": {"dtype": "float32"}}, "moving_variance_initializer": {"class_name": "Ones", "config": {"dtype": "float32"}}, "beta_regularizer": null, "gamma_regularizer": null, "beta_constraint": null, "gamma_constraint": null}, "inbound_nodes": [[["conv2d_169", 0, 0, {}]]]}, {"name": "conv2d_170", "class_name": "Conv2D", "config": {"name": "conv2d_170", "trainable": true, "dtype": "float32", "filters": 64, "kernel_size": [3, 3], "strides": [1, 1], "padding": "same", "data_format": "channels_last", "dilation_rate": [1, 1], "activation": "relu", "use_bias": true, "kernel_initializer": {"class_name": "VarianceScaling", "config": {"scale": 1.0, "mode": "fan_avg", "distribution": "uniform", "seed": null, "dtype": "float32"}}, "bias_initializer": {"class_name": "Zeros", "config": {"dtype": "float32"}}, "kernel_regularizer": {"class_name": "L1L2", "config": {"l1": 0.0, "l2": 0.0}}, "bias_regularizer": null, "activity_regularizer": null, "kernel_constraint": null, "bias_constraint": null}, "inbound_nodes": [[["batch_normalization_152", 0, 0, {}]]]}, {"name": "batch_normalization_153", "class_name": "BatchNormalization", "config": {"name": "batch_normalization_153", "trainable": true, "dtype": "float32", "axis": [3], "momentum": 0.99, "epsilon": 0.001, "center": true, "scale": true, "beta_initializer": {"class_name": "Zeros", "config": {"dtype": "float32"}}, "gamma_initializer": {"class_name": "Ones", "config": {"dtype": "float32"}}, "moving_mean_initializer": {"class_name": "Zeros", "config": {"dtype": "float32"}}, "moving_variance_initializer": {"class_name": "Ones", "config": {"dtype": "float32"}}, "beta_regularizer": null, "gamma_regularizer": null, "beta_constraint": null, "gamma_constraint": null}, "inbound_nodes": [[["conv2d_170", 0, 0, {}]]]}, {"name": "conv2d_171", "class_name": "Conv2D", "config": {"name": "conv2d_171", "trainable": true, "dtype": "float32", "filters": 256, "kernel_size": [1, 1], "strides": [1, 1], "padding": "same", "data_format": "channels_last", "dilation_rate": [1, 1], "activation": "linear", "use_bias": true, "kernel_initializer": {"class_name": "VarianceScaling", "config": {"scale": 1.0, "mode": "fan_avg", "distribution": "uniform", "seed": null, "dtype": "float32"}}, "bias_initializer": {"class_name": "Zeros", "config": {"dtype": "float32"}}, "kernel_regularizer": {"class_name": "L1L2", "config": {"l1": 0.0, "l2": 0.0}}, "bias_regularizer": null, "activity_regularizer": null, "kernel_constraint": null, "bias_constraint": null}, "inbound_nodes": [[["batch_normalization_153", 0, 0, {}]]]}, {"name": "add_40", "class_name": "Add", "config": {"name": "add_40", "trainable": true, "dtype": "float32"}, "inbound_nodes": [[["batch_normalization_151", 0, 0, {}], ["conv2d_171", 0, 0, {}]]]}, {"name": "activation_40", "class_name": "Activation", "config": {"name": "activation_40", "trainable": true, "dtype": "float32", "activation": "relu"}, "inbound_nodes": [[["add_40", 0, 0, {}]]]}, {"name": "max_pooling2d_33", "class_name": "MaxPooling2D", "config": {"name": "max_pooling2d_33", "trainable": true, "dtype": "float32", "pool_size": [2, 2], "padding": "valid", "strides": [2, 2], "data_format": "channels_last"}, "inbound_nodes": [[["activation_40", 0, 0, {}]]]}, {"name": "global_max_pooling2d_5", "class_name": "GlobalMaxPooling2D", "config": {"name": "global_max_pooling2d_5", "trainable": true, "dtype": "float32", "data_format": "channels_last"}, "inbound_nodes": [[["max_pooling2d_33", 0, 0, {}]]]}, {"name": "prediction", "class_name": "Dense", "config": {"name": "prediction", "trainable": true, "dtype": "float32", "units": 5, "activation": "softmax", "use_bias": true, "kernel_initializer": {"class_name": "VarianceScaling", "config": {"scale": 1.0, "mode": "fan_avg", "distribution": "uniform", "seed": null, "dtype": "float32"}}, "bias_initializer": {"class_name": "Zeros", "config": {"dtype": "float32"}}, "kernel_regularizer": null, "bias_regularizer": null, "activity_regularizer": null, "kernel_constraint": null, "bias_constraint": null}, "inbound_nodes": [[["global_max_pooling2d_5", 0, 0, {}]]]}], "input_layers": [["input_6", 0, 0]], "output_layers": [["prediction", 0, 0]]}}}, "weightsManifest": [{"paths": ["group1-shard1of1"], "weights": [{"name": "batch_normalization_126/gamma", "shape": [64], "dtype": "float32"}, {"name": "batch_normalization_126/beta", "shape": [64], "dtype": "float32"}, {"name": "batch_normalization_126/moving_mean", "shape": [64], "dtype": "float32"}, {"name": "batch_normalization_126/moving_variance", "shape": [64], "dtype": "float32"}, {"name": "batch_normalization_127/gamma", "shape": [64], "dtype": "float32"}, {"name": "batch_normalization_127/beta", "shape": [64], "dtype": "float32"}, {"name": "batch_normalization_127/moving_mean", "shape": [64], "dtype": "float32"}, {"name": "batch_normalization_127/moving_variance", "shape": [64], "dtype": "float32"}, {"name": "batch_normalization_128/gamma", "shape": [64], "dtype": "float32"}, {"name": "batch_normalization_128/beta", "shape": [64], "dtype": "float32"}, {"name": "batch_normalization_128/moving_mean", "shape": [64], "dtype": "float32"}, {"name": "batch_normalization_128/moving_variance", "shape": [64], "dtype": "float32"}, {"name": "batch_normalization_129/gamma", "shape": [128], "dtype": "float32"}, {"name": "batch_normalization_129/beta", "shape": [128], "dtype": "float32"}, {"name": "batch_normalization_129/moving_mean", "shape": [128], "dtype": "float32"}, {"name": "batch_normalization_129/moving_variance", "shape": [128], "dtype": "float32"}, {"name": "batch_normalization_130/gamma", "shape": [64], "dtype": "float32"}, {"name": "batch_normalization_130/beta", "shape": [64], "dtype": "float32"}, {"name": "batch_normalization_130/moving_mean", "shape": [64], "dtype": "float32"}, {"name": "batch_normalization_130/moving_variance", "shape": [64], "dtype": "float32"}, {"name": "batch_normalization_131/gamma", "shape": [64], "dtype": "float32"}, {"name": "batch_normalization_131/beta", "shape": [64], "dtype": "float32"}, {"name": "batch_normalization_131/moving_mean", "shape": [64], "dtype": "float32"}, {"name": "batch_normalization_131/moving_variance", "shape": [64], "dtype": "float32"}, {"name": "batch_normalization_132/gamma", "shape": [128], "dtype": "float32"}, {"name": "batch_normalization_132/beta", "shape": [128], "dtype": "float32"}, {"name": "batch_normalization_132/moving_mean", "shape": [128], "dtype": "float32"}, {"name": "batch_normalization_132/moving_variance", "shape": [128], "dtype": "float32"}, {"name": "batch_normalization_133/gamma", "shape": [64], "dtype": "float32"}, {"name": "batch_normalization_133/beta", "shape": [64], "dtype": "float32"}, {"name": "batch_normalization_133/moving_mean", "shape": [64], "dtype": "float32"}, {"name": "batch_normalization_133/moving_variance", "shape": [64], "dtype": "float32"}, {"name": "batch_normalization_134/gamma", "shape": [64], "dtype": "float32"}, {"name": "batch_normalization_134/beta", "shape": [64], "dtype": "float32"}, {"name": "batch_normalization_134/moving_mean", "shape": [64], "dtype": "float32"}, {"name": "batch_normalization_134/moving_variance", "shape": [64], "dtype": "float32"}, {"name": "batch_normalization_135/gamma", "shape": [128], "dtype": "float32"}, {"name": "batch_normalization_135/beta", "shape": [128], "dtype": "float32"}, {"name": "batch_normalization_135/moving_mean", "shape": [128], "dtype": "float32"}, {"name": "batch_normalization_135/moving_variance", "shape": [128], "dtype": "float32"}, {"name": "batch_normalization_136/gamma", "shape": [64], "dtype": "float32"}, {"name": "batch_normalization_136/beta", "shape": [64], "dtype": "float32"}, {"name": "batch_normalization_136/moving_mean", "shape": [64], "dtype": "float32"}, {"name": "batch_normalization_136/moving_variance", "shape": [64], "dtype": "float32"}, {"name": "batch_normalization_137/gamma", "shape": [64], "dtype": "float32"}, {"name": "batch_normalization_137/beta", "shape": [64], "dtype": "float32"}, {"name": "batch_normalization_137/moving_mean", "shape": [64], "dtype": "float32"}, {"name": "batch_normalization_137/moving_variance", "shape": [64], "dtype": "float32"}, {"name": "batch_normalization_138/gamma", "shape": [128], "dtype": "float32"}, {"name": "batch_normalization_138/beta", "shape": [128], "dtype": "float32"}, {"name": "batch_normalization_138/moving_mean", "shape": [128], "dtype": "float32"}, {"name": "batch_normalization_138/moving_variance", "shape": [128], "dtype": "float32"}, {"name": "batch_normalization_139/gamma", "shape": [64], "dtype": "float32"}, {"name": "batch_normalization_139/beta", "shape": [64], "dtype": "float32"}, {"name": "batch_normalization_139/moving_mean", "shape": [64], "dtype": "float32"}, {"name": "batch_normalization_139/moving_variance", "shape": [64], "dtype": "float32"}, {"name": "batch_normalization_140/gamma", "shape": [64], "dtype": "float32"}, {"name": "batch_normalization_140/beta", "shape": [64], "dtype": "float32"}, {"name": "batch_normalization_140/moving_mean", "shape": [64], "dtype": "float32"}, {"name": "batch_normalization_140/moving_variance", "shape": [64], "dtype": "float32"}, {"name": "batch_normalization_141/gamma", "shape": [128], "dtype": "float32"}, {"name": "batch_normalization_141/beta", "shape": [128], "dtype": "float32"}, {"name": "batch_normalization_141/moving_mean", "shape": [128], "dtype": "float32"}, {"name": "batch_normalization_141/moving_variance", "shape": [128], "dtype": "float32"}, {"name": "batch_normalization_142/gamma", "shape": [256], "dtype": "float32"}, {"name": "batch_normalization_142/beta", "shape": [256], "dtype": "float32"}, {"name": "batch_normalization_142/moving_mean", "shape": [256], "dtype": "float32"}, {"name": "batch_normalization_142/moving_variance", "shape": [256], "dtype": "float32"}, {"name": "batch_normalization_143/gamma", "shape": [64], "dtype": "float32"}, {"name": "batch_normalization_143/beta", "shape": [64], "dtype": "float32"}, {"name": "batch_normalization_143/moving_mean", "shape": [64], "dtype": "float32"}, {"name": "batch_normalization_143/moving_variance", "shape": [64], "dtype": "float32"}, {"name": "batch_normalization_144/gamma", "shape": [64], "dtype": "float32"}, {"name": "batch_normalization_144/beta", "shape": [64], "dtype": "float32"}, {"name": "batch_normalization_144/moving_mean", "shape": [64], "dtype": "float32"}, {"name": "batch_normalization_144/moving_variance", "shape": [64], "dtype": "float32"}, {"name": "batch_normalization_145/gamma", "shape": [256], "dtype": "float32"}, {"name": "batch_normalization_145/beta", "shape": [256], "dtype": "float32"}, {"name": "batch_normalization_145/moving_mean", "shape": [256], "dtype": "float32"}, {"name": "batch_normalization_145/moving_variance", "shape": [256], "dtype": "float32"}, {"name": "batch_normalization_146/gamma", "shape": [64], "dtype": "float32"}, {"name": "batch_normalization_146/beta", "shape": [64], "dtype": "float32"}, {"name": "batch_normalization_146/moving_mean", "shape": [64], "dtype": "float32"}, {"name": "batch_normalization_146/moving_variance", "shape": [64], "dtype": "float32"}, {"name": "batch_normalization_147/gamma", "shape": [64], "dtype": "float32"}, {"name": "batch_normalization_147/beta", "shape": [64], "dtype": "float32"}, {"name": "batch_normalization_147/moving_mean", "shape": [64], "dtype": "float32"}, {"name": "batch_normalization_147/moving_variance", "shape": [64], "dtype": "float32"}, {"name": "batch_normalization_148/gamma", "shape": [256], "dtype": "float32"}, {"name": "batch_normalization_148/beta", "shape": [256], "dtype": "float32"}, {"name": "batch_normalization_148/moving_mean", "shape": [256], "dtype": "float32"}, {"name": "batch_normalization_148/moving_variance", "shape": [256], "dtype": "float32"}, {"name": "batch_normalization_149/gamma", "shape": [64], "dtype": "float32"}, {"name": "batch_normalization_149/beta", "shape": [64], "dtype": "float32"}, {"name": "batch_normalization_149/moving_mean", "shape": [64], "dtype": "float32"}, {"name": "batch_normalization_149/moving_variance", "shape": [64], "dtype": "float32"}, {"name": "batch_normalization_150/gamma", "shape": [64], "dtype": "float32"}, {"name": "batch_normalization_150/beta", "shape": [64], "dtype": "float32"}, {"name": "batch_normalization_150/moving_mean", "shape": [64], "dtype": "float32"}, {"name": "batch_normalization_150/moving_variance", "shape": [64], "dtype": "float32"}, {"name": "batch_normalization_151/gamma", "shape": [256], "dtype": "float32"}, {"name": "batch_normalization_151/beta", "shape": [256], "dtype": "float32"}, {"name": "batch_normalization_151/moving_mean", "shape": [256], "dtype": "float32"}, {"name": "batch_normalization_151/moving_variance", "shape": [256], "dtype": "float32"}, {"name": "batch_normalization_152/gamma", "shape": [64], "dtype": "float32"}, {"name": "batch_normalization_152/beta", "shape": [64], "dtype": "float32"}, {"name": "batch_normalization_152/moving_mean", "shape": [64], "dtype": "float32"}, {"name": "batch_normalization_152/moving_variance", "shape": [64], "dtype": "float32"}, {"name": "batch_normalization_153/gamma", "shape": [64], "dtype": "float32"}, {"name": "batch_normalization_153/beta", "shape": [64], "dtype": "float32"}, {"name": "batch_normalization_153/moving_mean", "shape": [64], "dtype": "float32"}, {"name": "batch_normalization_153/moving_variance", "shape": [64], "dtype": "float32"}, {"name": "conv2d_143/kernel", "shape": [9, 9, 3, 64], "dtype": "float32"}, {"name": "conv2d_143/bias", "shape": [64], "dtype": "float32"}, {"name": "conv2d_144/kernel", "shape": [3, 3, 64, 64], "dtype": "float32"}, {"name": "conv2d_144/bias", "shape": [64], "dtype": "float32"}, {"name": "conv2d_145/kernel", "shape": [3, 3, 64, 64], "dtype": "float32"}, {"name": "conv2d_145/bias", "shape": [64], "dtype": "float32"}, {"name": "conv2d_146/kernel", "shape": [1, 1, 64, 128], "dtype": "float32"}, {"name": "conv2d_146/bias", "shape": [128], "dtype": "float32"}, {"name": "conv2d_147/kernel", "shape": [1, 1, 128, 64], "dtype": "float32"}, {"name": "conv2d_147/bias", "shape": [64], "dtype": "float32"}, {"name": "conv2d_148/kernel", "shape": [3, 3, 64, 64], "dtype": "float32"}, {"name": "conv2d_148/bias", "shape": [64], "dtype": "float32"}, {"name": "conv2d_149/kernel", "shape": [1, 1, 64, 128], "dtype": "float32"}, {"name": "conv2d_149/bias", "shape": [128], "dtype": "float32"}, {"name": "conv2d_150/kernel", "shape": [1, 1, 128, 64], "dtype": "float32"}, {"name": "conv2d_150/bias", "shape": [64], "dtype": "float32"}, {"name": "conv2d_151/kernel", "shape": [3, 3, 64, 64], "dtype": "float32"}, {"name": "conv2d_151/bias", "shape": [64], "dtype": "float32"}, {"name": "conv2d_152/kernel", "shape": [1, 1, 64, 128], "dtype": "float32"}, {"name": "conv2d_152/bias", "shape": [128], "dtype": "float32"}, {"name": "conv2d_153/kernel", "shape": [1, 1, 128, 64], "dtype": "float32"}, {"name": "conv2d_153/bias", "shape": [64], "dtype": "float32"}, {"name": "conv2d_154/kernel", "shape": [3, 3, 64, 64], "dtype": "float32"}, {"name": "conv2d_154/bias", "shape": [64], "dtype": "float32"}, {"name": "conv2d_155/kernel", "shape": [1, 1, 64, 128], "dtype": "float32"}, {"name": "conv2d_155/bias", "shape": [128], "dtype": "float32"}, {"name": "conv2d_156/kernel", "shape": [1, 1, 128, 64], "dtype": "float32"}, {"name": "conv2d_156/bias", "shape": [64], "dtype": "float32"}, {"name": "conv2d_157/kernel", "shape": [3, 3, 64, 64], "dtype": "float32"}, {"name": "conv2d_157/bias", "shape": [64], "dtype": "float32"}, {"name": "conv2d_158/kernel", "shape": [1, 1, 64, 128], "dtype": "float32"}, {"name": "conv2d_158/bias", "shape": [128], "dtype": "float32"}, {"name": "conv2d_159/kernel", "shape": [1, 1, 128, 256], "dtype": "float32"}, {"name": "conv2d_159/bias", "shape": [256], "dtype": "float32"}, {"name": "conv2d_160/kernel", "shape": [1, 1, 256, 64], "dtype": "float32"}, {"name": "conv2d_160/bias", "shape": [64], "dtype": "float32"}, {"name": "conv2d_161/kernel", "shape": [3, 3, 64, 64], "dtype": "float32"}, {"name": "conv2d_161/bias", "shape": [64], "dtype": "float32"}, {"name": "conv2d_162/kernel", "shape": [1, 1, 64, 256], "dtype": "float32"}, {"name": "conv2d_162/bias", "shape": [256], "dtype": "float32"}, {"name": "conv2d_163/kernel", "shape": [1, 1, 256, 64], "dtype": "float32"}, {"name": "conv2d_163/bias", "shape": [64], "dtype": "float32"}, {"name": "conv2d_164/kernel", "shape": [3, 3, 64, 64], "dtype": "float32"}, {"name": "conv2d_164/bias", "shape": [64], "dtype": "float32"}, {"name": "conv2d_165/kernel", "shape": [1, 1, 64, 256], "dtype": "float32"}, {"name": "conv2d_165/bias", "shape": [256], "dtype": "float32"}, {"name": "conv2d_166/kernel", "shape": [1, 1, 256, 64], "dtype": "float32"}, {"name": "conv2d_166/bias", "shape": [64], "dtype": "float32"}, {"name": "conv2d_167/kernel", "shape": [3, 3, 64, 64], "dtype": "float32"}, {"name": "conv2d_167/bias", "shape": [64], "dtype": "float32"}, {"name": "conv2d_168/kernel", "shape": [1, 1, 64, 256], "dtype": "float32"}, {"name": "conv2d_168/bias", "shape": [256], "dtype": "float32"}, {"name": "conv2d_169/kernel", "shape": [1, 1, 256, 64], "dtype": "float32"}, {"name": "conv2d_169/bias", "shape": [64], "dtype": "float32"}, {"name": "conv2d_170/kernel", "shape": [3, 3, 64, 64], "dtype": "float32"}, {"name": "conv2d_170/bias", "shape": [64], "dtype": "float32"}, {"name": "conv2d_171/kernel", "shape": [1, 1, 64, 256], "dtype": "float32"}, {"name": "conv2d_171/bias", "shape": [256], "dtype": "float32"}, {"name": "prediction/kernel", "shape": [256, 5], "dtype": "float32"}, {"name": "prediction/bias", "shape": [5], "dtype": "float32"}]}]}